sd_modelmixer/classifiers/laion_v1/sa_0_4_vit_l_14_linear.safetensors (safetensors, 3212 bytes, 1 tensors)

weight f4 [1, 768]
00000000: 4eb5 ef3f 287b 36c0 ef1b 88be 9efb a83f
00000010: c6fe 8dbf e51f 2bbf c6d3 aa3e ba0a b53d
00000020: dfc0 b83f 441d 8a3f 72e4 d73e 596a 25be
00000030: 995a 253f 2eff 383f 9f85 5b39 ce66 303f
00000040: b6f6 48bf 8fa6 38bf 7e2f c83e eeed 9f3f
00000050: 51fa edbf 1048 503f b410 18c0 0d4a 8dbf
00000060: 7745 0b3f c7b9 21bf 82b3 813f 2838 403f
00000070: 09fa a03f ef97 723f cae1 5b3f e3ee d8be
00000080: af6f e83e 2f6d 9ebf e45e 903e 513a 473f
00000090: de74 54bf 225e 5f3f be55 08bf b3be 073f
000000a0: c694 acbe 2f71 1140 0b80 593f 5658 1140
000000b0: 7f8a 2f3f e4cb b7be 3371 d53e 8802 1e3f
000000c0: 3a9a 60bf b6c3 0540 8fe5 503e 0b0a 863f
000000d0: b00d 7c3f 6e35 3b3e 5a7e 52bc 1cf4 cb3e
000000e0: 94d7 90bf aade 673f ded9 013f 29d3 53c0
000000f0: b750 a7be 9dc3 57bf 97a0 3a3f c862 ba3e
00000100: cc77 df3f 8e1e 8d3f 5980 5abf 4ab5 773f
00000110: 7de8 333e e75a ddbe 5fca 0e40 1686 1c3f
00000120: 8e6c 2340 bed4 d33f 59bb 56be 3c43 ef3e
00000130: 6d75 913f 7cbc ba3e 6c90 b33e 996d da3f
00000140: 76ac 9f3f 878c 18c0 d45e a0be c463 d63e
00000150: 99a2 743e ed0f fc3e 2ea8 1abf 871d 9cbb
00000160: cb0a c93f c00d 033f 143f c8bf 23af 78bf
00000170: bfbe 88bf 70d3 f0bd cbf6 75be 0bdc 14bf
00000180: 7840 47be 8cd8 a8bf fb18 86be 81f8 fbbd
00000190: 269d 743e c241 1d3f 36a4 b5bd 5c43 94bf
000001a0: c22f 54bf 0826 4e3f e1b7 d3bc cf6c 42bf
000001b0: aa70 423f 84f7 303f b914 65be 0e4a 0abf
000001c0: e7dd 423d b3b6 083f 4582 1440 ac8e 55be
000001d0: 8573 0040 8d5d 6bbf a21c 2bbd 631c c4be
000001e0: a5f5 a1bf 0eca 853f affb 64bf 49b7 603e
000001f0: d97b f63e a738 673f 13e1 04be f3ad b7bf
00000200: a5dc 213f 6e2c 70bf e3e3 1cbf cf7a 023f
00000210: 55ec 2fc0 4348 223f 06af 8bbf a381 d03e
00000220: 5621 8cbf 8ae2 f6be bfe6 a7be 1917 a8bd
00000230: 4cf0 c0be ab23 763e 5b03 653f 62e2 193f
00000240: 683a ed3e d6e0 8d3e 220d 4c3e d4b3 563f
00000250: f275 52be 4428 0e3e ecaf 0b3f e0d4 70be
00000260: f4c4 653f 4946 1a3f 69db aabe 4973 30bf
00000270: 8bb4 e03f 85f8 bfbe f122 6bbe 7792 c3bf
00000280: de65 19be 249d 57bf 7cc7 16c0 90be ab3e
00000290: 2941 1fbf 4978 6a3f 7bd3 2fbf 109f 65bf
000002a0: 8d6f 82bf 23d9 533f c093 0d3e b100 75bf
000002b0: bba2 473f c452 8dbf 9386 29bf fd79 5ebf
000002c0: 6318 5d3f 6ed5 eebb c4ed 653f f737 2fbf
000002d0: 1909 fd3f 8859 9cbf 8516 023e 455d 6c3f
000002e0: 353b e73e 4d81 e23e 4165 0e3f d6b5 d5be
000002f0: 382a babd 0a16 1fbf 4756 513f d807 5e3e
00000300: 4475 0d3d f36e 783f 6ab5 d5be bb2a fa3e
00000310: 8ed3 95bf 033b a33f 236f 45bc 1b02 bc3e
00000320: 7a5c 23bf bc07 86be 8d4c 893f 32b8 6dbe
00000330: 7530 c53f c97b e23e 6f87 413e f606 123e
00000340: e410 22bf 3804 60bf 5152 88bf 5c7e b9bf
00000350: 9ccd 2f3f 7f74 f9bc e65d 72be 6873 113f
00000360: c9bb 2a3d eed5 d6be 5be7 363e f013 86bf
00000370: d546 9fbf 8753 0ebf 387c 643e 7731 89be
00000380: 33ca 81bf 7887 3dbe c7ca 313f d62d dcbd
00000390: db23 f63f 9fb4 b73e c20f f3be 0c35 85be
000003a0: 50ae 083f 2152 a0bf 898e 443f 3e68 9cbf
000003b0: bb4e 59bf ee5f 0cc0 d0d0 0b3e 544f 193f
000003c0: a7d4 97bf 55f4 683e cff3 adbf 1fba b23f
000003d0: 272e 1cbe 2cdb d03e 5c20 3cbf ca8d af3f
000003e0: 1018 ab3d e56b f0be b474 79bd 06ff 9bbf
000003f0: e5f2 8fbf fc04 c5bf 34bd ddbe 3ad5 73be
1.8727205 -2.8512669 -0.26583812 1.3201787 -1.1093376 -0.6684554 0.33364695 0.088399366
1.443386 1.0790181 0.42166477 -0.1615385 0.64591366 0.72264373 0.00020935245 0.6890687
-0.7850145 -0.7212915 0.39098734 1.2494485 -1.8592016 0.8135996 -2.3760195 -1.1038224
0.5440287 -0.631741 1.0132906 0.7508569 1.2576305 0.9476308 0.858914 -0.42369756
0.45397708 -1.237707 0.28197396 0.7782336 -0.82990825 0.8725301 -0.5325583 0.5302536
-0.33707255 2.2725332 0.84961003 2.2710166 0.68570703 -0.35897744 0.41687927 0.6172261
-0.8773533 2.0900702 0.2040007 1.0471815 0.98458385 0.182821 -0.012847507 0.39834678
-1.1315789 0.90574133 0.50723064 -3.3097632 -0.32678768 -0.8428286 0.7290129 0.3640349
1.7458434 1.102495 -0.85352093 0.96761 0.17569156 -0.43233415 2.2311018 0.611421
2.5535007 1.6549299 -0.20969905 0.46730983 1.136396 0.36471927 0.35071123 1.7064697
1.2474506 -2.383577 -0.31322348 0.4187299 0.23890151 0.492309 -0.6041287 -0.004764262
1.5706419 0.51192856 -1.564425 -0.9714224 -1.0683211 -0.117590785 -0.24019925 -0.5814826
-0.19458187 -1.3191085 -0.26190934 -0.12303258 0.23888072 0.61428463 -0.088692114 -1.1583056
-0.8288537 0.8052678 -0.025844516 -0.7594728 0.7595316 0.6912768 -0.22371186 -0.5401925
0.047574904 0.53403777 2.320451 -0.20855206 2.0070508 -0.9193962 -0.041775353 -0.38302907
-1.265309 1.0452287 -0.8944654 0.21944918 0.48141363 0.9032082 -0.12976484 -1.434996
0.632273 -0.93817794 -0.6128523 0.5096864 -2.7487996 0.6339151 -1.0912788 0.40723905
-1.0947673 -0.4821971 -0.32793233 -0.082075305 -0.37683332 0.24037044 0.89458245 0.6011106
0.46333623 0.277106 0.19926885 0.83868146 -0.20552805 0.13882548 0.5456531 -0.23518705
0.8975365 0.60263497 -0.33370522 -0.6892591 1.7555097 -0.37494293 -0.22962548 -1.5279073
-0.14980265 -0.8422415 -2.3559256 0.33543825 -0.622088 0.9158979 -0.6868207 -0.89695835
-1.0190293 0.827532 0.13825893 -0.9570418 0.7798268 -1.1040883 -0.6622097 -0.8690489
0.86365336 -0.0072886264 0.89815927 -0.6844477 1.9768401 -1.2214823 0.12703903 0.9232982
0.4516236 0.44239274 0.5562325 -0.41740292 -0.09090084 -0.62143004 0.81772274 0.2168268
0.03453566 0.97044295 -0.4173997 0.48860726 -1.1705186 1.2752384 -0.012050423 0.36720356
-0.63812983 -0.26177776 1.0726486 -0.23214796 1.5405413 0.44235066 0.1889932 0.14260468
-0.63307023 -0.8750644 -1.0650121 -1.4491687 0.6867311 -0.030451057 -0.23668632 0.5681672
0.041682992 -0.4196009 0.17861693 -1.0474834 -1.2443491 -0.555962 0.2231301 -0.2679555
-1.0139831 -0.18508708 0.6945004 -0.1075093 1.9229692 0.3587999 -0.4747296 -0.26017034
0.5339098 -1.2525064 0.7677999 -1.2219312 -0.8488576 -2.193355 0.13653874 0.5988667
-1.1861771 0.22749455 -1.359003 1.396305 -0.1525198 0.40792215 -0.73486876 1.3715146
0.08354199 -0.46957317 -0.060902312 -1.2187202 -1.1246 -1.5392146 -0.43308413 -0.23811808
